cuda:0
Starting ...
Files already downloaded and verified
Files already downloaded and verified
Data Loading Done !
Model created!
MyViT(
  (linear_mapper): Linear(in_features=48, out_features=8, bias=True)
  (blocks): ModuleList(
    (0): MyViTBlock(
      (norm1): LayerNorm((8,), eps=1e-05, elementwise_affine=True)
      (mhsa): MyMSA(
        (q_mappings): ModuleList(
          (0): Linear(in_features=1, out_features=1, bias=True)
          (1): Linear(in_features=1, out_features=1, bias=True)
          (2): Linear(in_features=1, out_features=1, bias=True)
          (3): Linear(in_features=1, out_features=1, bias=True)
          (4): Linear(in_features=1, out_features=1, bias=True)
          (5): Linear(in_features=1, out_features=1, bias=True)
          (6): Linear(in_features=1, out_features=1, bias=True)
          (7): Linear(in_features=1, out_features=1, bias=True)
        )
        (k_mappings): ModuleList(
          (0): Linear(in_features=1, out_features=1, bias=True)
          (1): Linear(in_features=1, out_features=1, bias=True)
          (2): Linear(in_features=1, out_features=1, bias=True)
          (3): Linear(in_features=1, out_features=1, bias=True)
          (4): Linear(in_features=1, out_features=1, bias=True)
          (5): Linear(in_features=1, out_features=1, bias=True)
          (6): Linear(in_features=1, out_features=1, bias=True)
          (7): Linear(in_features=1, out_features=1, bias=True)
        )
        (v_mappings): ModuleList(
          (0): Linear(in_features=1, out_features=1, bias=True)
          (1): Linear(in_features=1, out_features=1, bias=True)
          (2): Linear(in_features=1, out_features=1, bias=True)
          (3): Linear(in_features=1, out_features=1, bias=True)
          (4): Linear(in_features=1, out_features=1, bias=True)
          (5): Linear(in_features=1, out_features=1, bias=True)
          (6): Linear(in_features=1, out_features=1, bias=True)
          (7): Linear(in_features=1, out_features=1, bias=True)
        )
        (softmax): Softmax(dim=-1)
      )
      (norm2): LayerNorm((8,), eps=1e-05, elementwise_affine=True)
      (mlp): Sequential(
        (0): Linear(in_features=8, out_features=32, bias=True)
        (1): GELU(approximate='none')
        (2): Linear(in_features=32, out_features=8, bias=True)
      )
    )
    (1): MyViTBlock(
      (norm1): LayerNorm((8,), eps=1e-05, elementwise_affine=True)
      (mhsa): MyMSA(
        (q_mappings): ModuleList(
          (0): Linear(in_features=1, out_features=1, bias=True)
          (1): Linear(in_features=1, out_features=1, bias=True)
          (2): Linear(in_features=1, out_features=1, bias=True)
          (3): Linear(in_features=1, out_features=1, bias=True)
          (4): Linear(in_features=1, out_features=1, bias=True)
          (5): Linear(in_features=1, out_features=1, bias=True)
          (6): Linear(in_features=1, out_features=1, bias=True)
          (7): Linear(in_features=1, out_features=1, bias=True)
        )
        (k_mappings): ModuleList(
          (0): Linear(in_features=1, out_features=1, bias=True)
          (1): Linear(in_features=1, out_features=1, bias=True)
          (2): Linear(in_features=1, out_features=1, bias=True)
          (3): Linear(in_features=1, out_features=1, bias=True)
          (4): Linear(in_features=1, out_features=1, bias=True)
          (5): Linear(in_features=1, out_features=1, bias=True)
          (6): Linear(in_features=1, out_features=1, bias=True)
          (7): Linear(in_features=1, out_features=1, bias=True)
        )
        (v_mappings): ModuleList(
          (0): Linear(in_features=1, out_features=1, bias=True)
          (1): Linear(in_features=1, out_features=1, bias=True)
          (2): Linear(in_features=1, out_features=1, bias=True)
          (3): Linear(in_features=1, out_features=1, bias=True)
          (4): Linear(in_features=1, out_features=1, bias=True)
          (5): Linear(in_features=1, out_features=1, bias=True)
          (6): Linear(in_features=1, out_features=1, bias=True)
          (7): Linear(in_features=1, out_features=1, bias=True)
        )
        (softmax): Softmax(dim=-1)
      )
      (norm2): LayerNorm((8,), eps=1e-05, elementwise_affine=True)
      (mlp): Sequential(
        (0): Linear(in_features=8, out_features=32, bias=True)
        (1): GELU(approximate='none')
        (2): Linear(in_features=32, out_features=8, bias=True)
      )
    )
    (2): MyViTBlock(
      (norm1): LayerNorm((8,), eps=1e-05, elementwise_affine=True)
      (mhsa): MyMSA(
        (q_mappings): ModuleList(
          (0): Linear(in_features=1, out_features=1, bias=True)
          (1): Linear(in_features=1, out_features=1, bias=True)
          (2): Linear(in_features=1, out_features=1, bias=True)
          (3): Linear(in_features=1, out_features=1, bias=True)
          (4): Linear(in_features=1, out_features=1, bias=True)
          (5): Linear(in_features=1, out_features=1, bias=True)
          (6): Linear(in_features=1, out_features=1, bias=True)
          (7): Linear(in_features=1, out_features=1, bias=True)
        )
        (k_mappings): ModuleList(
          (0): Linear(in_features=1, out_features=1, bias=True)
          (1): Linear(in_features=1, out_features=1, bias=True)
          (2): Linear(in_features=1, out_features=1, bias=True)
          (3): Linear(in_features=1, out_features=1, bias=True)
          (4): Linear(in_features=1, out_features=1, bias=True)
          (5): Linear(in_features=1, out_features=1, bias=True)
          (6): Linear(in_features=1, out_features=1, bias=True)
          (7): Linear(in_features=1, out_features=1, bias=True)
        )
        (v_mappings): ModuleList(
          (0): Linear(in_features=1, out_features=1, bias=True)
          (1): Linear(in_features=1, out_features=1, bias=True)
          (2): Linear(in_features=1, out_features=1, bias=True)
          (3): Linear(in_features=1, out_features=1, bias=True)
          (4): Linear(in_features=1, out_features=1, bias=True)
          (5): Linear(in_features=1, out_features=1, bias=True)
          (6): Linear(in_features=1, out_features=1, bias=True)
          (7): Linear(in_features=1, out_features=1, bias=True)
        )
        (softmax): Softmax(dim=-1)
      )
      (norm2): LayerNorm((8,), eps=1e-05, elementwise_affine=True)
      (mlp): Sequential(
        (0): Linear(in_features=8, out_features=32, bias=True)
        (1): GELU(approximate='none')
        (2): Linear(in_features=32, out_features=8, bias=True)
      )
    )
    (3): MyViTBlock(
      (norm1): LayerNorm((8,), eps=1e-05, elementwise_affine=True)
      (mhsa): MyMSA(
        (q_mappings): ModuleList(
          (0): Linear(in_features=1, out_features=1, bias=True)
          (1): Linear(in_features=1, out_features=1, bias=True)
          (2): Linear(in_features=1, out_features=1, bias=True)
          (3): Linear(in_features=1, out_features=1, bias=True)
          (4): Linear(in_features=1, out_features=1, bias=True)
          (5): Linear(in_features=1, out_features=1, bias=True)
          (6): Linear(in_features=1, out_features=1, bias=True)
          (7): Linear(in_features=1, out_features=1, bias=True)
        )
        (k_mappings): ModuleList(
          (0): Linear(in_features=1, out_features=1, bias=True)
          (1): Linear(in_features=1, out_features=1, bias=True)
          (2): Linear(in_features=1, out_features=1, bias=True)
          (3): Linear(in_features=1, out_features=1, bias=True)
          (4): Linear(in_features=1, out_features=1, bias=True)
          (5): Linear(in_features=1, out_features=1, bias=True)
          (6): Linear(in_features=1, out_features=1, bias=True)
          (7): Linear(in_features=1, out_features=1, bias=True)
        )
        (v_mappings): ModuleList(
          (0): Linear(in_features=1, out_features=1, bias=True)
          (1): Linear(in_features=1, out_features=1, bias=True)
          (2): Linear(in_features=1, out_features=1, bias=True)
          (3): Linear(in_features=1, out_features=1, bias=True)
          (4): Linear(in_features=1, out_features=1, bias=True)
          (5): Linear(in_features=1, out_features=1, bias=True)
          (6): Linear(in_features=1, out_features=1, bias=True)
          (7): Linear(in_features=1, out_features=1, bias=True)
        )
        (softmax): Softmax(dim=-1)
      )
      (norm2): LayerNorm((8,), eps=1e-05, elementwise_affine=True)
      (mlp): Sequential(
        (0): Linear(in_features=8, out_features=32, bias=True)
        (1): GELU(approximate='none')
        (2): Linear(in_features=32, out_features=8, bias=True)
      )
    )
    (4): MyViTBlock(
      (norm1): LayerNorm((8,), eps=1e-05, elementwise_affine=True)
      (mhsa): MyMSA(
        (q_mappings): ModuleList(
          (0): Linear(in_features=1, out_features=1, bias=True)
          (1): Linear(in_features=1, out_features=1, bias=True)
          (2): Linear(in_features=1, out_features=1, bias=True)
          (3): Linear(in_features=1, out_features=1, bias=True)
          (4): Linear(in_features=1, out_features=1, bias=True)
          (5): Linear(in_features=1, out_features=1, bias=True)
          (6): Linear(in_features=1, out_features=1, bias=True)
          (7): Linear(in_features=1, out_features=1, bias=True)
        )
        (k_mappings): ModuleList(
          (0): Linear(in_features=1, out_features=1, bias=True)
          (1): Linear(in_features=1, out_features=1, bias=True)
          (2): Linear(in_features=1, out_features=1, bias=True)
          (3): Linear(in_features=1, out_features=1, bias=True)
          (4): Linear(in_features=1, out_features=1, bias=True)
          (5): Linear(in_features=1, out_features=1, bias=True)
          (6): Linear(in_features=1, out_features=1, bias=True)
          (7): Linear(in_features=1, out_features=1, bias=True)
        )
        (v_mappings): ModuleList(
          (0): Linear(in_features=1, out_features=1, bias=True)
          (1): Linear(in_features=1, out_features=1, bias=True)
          (2): Linear(in_features=1, out_features=1, bias=True)
          (3): Linear(in_features=1, out_features=1, bias=True)
          (4): Linear(in_features=1, out_features=1, bias=True)
          (5): Linear(in_features=1, out_features=1, bias=True)
          (6): Linear(in_features=1, out_features=1, bias=True)
          (7): Linear(in_features=1, out_features=1, bias=True)
        )
        (softmax): Softmax(dim=-1)
      )
      (norm2): LayerNorm((8,), eps=1e-05, elementwise_affine=True)
      (mlp): Sequential(
        (0): Linear(in_features=8, out_features=32, bias=True)
        (1): GELU(approximate='none')
        (2): Linear(in_features=32, out_features=8, bias=True)
      )
    )
    (5): MyViTBlock(
      (norm1): LayerNorm((8,), eps=1e-05, elementwise_affine=True)
      (mhsa): MyMSA(
        (q_mappings): ModuleList(
          (0): Linear(in_features=1, out_features=1, bias=True)
          (1): Linear(in_features=1, out_features=1, bias=True)
          (2): Linear(in_features=1, out_features=1, bias=True)
          (3): Linear(in_features=1, out_features=1, bias=True)
          (4): Linear(in_features=1, out_features=1, bias=True)
          (5): Linear(in_features=1, out_features=1, bias=True)
          (6): Linear(in_features=1, out_features=1, bias=True)
          (7): Linear(in_features=1, out_features=1, bias=True)
        )
        (k_mappings): ModuleList(
          (0): Linear(in_features=1, out_features=1, bias=True)
          (1): Linear(in_features=1, out_features=1, bias=True)
          (2): Linear(in_features=1, out_features=1, bias=True)
          (3): Linear(in_features=1, out_features=1, bias=True)
          (4): Linear(in_features=1, out_features=1, bias=True)
          (5): Linear(in_features=1, out_features=1, bias=True)
          (6): Linear(in_features=1, out_features=1, bias=True)
          (7): Linear(in_features=1, out_features=1, bias=True)
        )
        (v_mappings): ModuleList(
          (0): Linear(in_features=1, out_features=1, bias=True)
          (1): Linear(in_features=1, out_features=1, bias=True)
          (2): Linear(in_features=1, out_features=1, bias=True)
          (3): Linear(in_features=1, out_features=1, bias=True)
          (4): Linear(in_features=1, out_features=1, bias=True)
          (5): Linear(in_features=1, out_features=1, bias=True)
          (6): Linear(in_features=1, out_features=1, bias=True)
          (7): Linear(in_features=1, out_features=1, bias=True)
        )
        (softmax): Softmax(dim=-1)
      )
      (norm2): LayerNorm((8,), eps=1e-05, elementwise_affine=True)
      (mlp): Sequential(
        (0): Linear(in_features=8, out_features=32, bias=True)
        (1): GELU(approximate='none')
        (2): Linear(in_features=32, out_features=8, bias=True)
      )
    )
  )
  (mlp): Sequential(
    (0): Linear(in_features=8, out_features=10, bias=True)
    (1): Softmax(dim=-1)
  )
)
Starting training !
Epoch: 1 (29m 1s) 	Training Loss: 2.194, 	Test Loss: 2.135,  	Training acc: 0.25, 	Test acc: 0.32, 
Epoch: 2 (58m 11s) 	Training Loss: 2.131, 	Test Loss: 2.106,  	Training acc: 0.32, 	Test acc: 0.35, 
Epoch: 3 (87m 20s) 	Training Loss: 2.111, 	Test Loss: 2.134,  	Training acc: 0.34, 	Test acc: 0.32, 
Epoch: 4 (116m 2s) 	Training Loss: 2.101, 	Test Loss: 2.087,  	Training acc: 0.35, 	Test acc: 0.37, 
…
